notebooks/my_converted_savemodel.tflite (tflite, 85008 bytes, 4 tensors)

arith.constant f4 [10, 100]
00000000: 446b ddbe 4145 853e a166 b83e f4c0 17be
00000010: 18b5 fb3c a565 9a3f 2a90 49be baf8 0fbf
00000020: ae63 c4be 3a3d 23bf 5050 acbf 00c7 de3d
00000030: b972 863e fe28 6abc 8fa8 e8be 8c81 edbe
00000040: cc79 c63d 2a8e 37bf 9b8d f53d 4485 6a3c
00000050: c958 6d3e fc6d 2fbf bfb5 f33d 9677 1dbf
00000060: 9f1e 63bf 7ba2 9f3f b70a fa3e 85b3 4b3f
00000070: 2235 e5be a453 5b3f 7c9a b33d 5169 04bd
00000080: f355 a8bf c79f 18bf 0186 a53e f1f0 36bf
00000090: ddd0 d43d 6154 90bf d76c 553e 4703 c8be
000000a0: 9928 163f 8e3b fd3e ae67 643f ef8e 7cbf
000000b0: 4276 823f 05fa 843e 2098 033f f5bd 46be
000000c0: ecdf e53e 6ec0 e73d b8c8 553f 33a4 52bf
000000d0: 520e 66be a018 153f 4d4e 3d3e 740b e5be
000000e0: eaca 27be 7b16 003f c9e8 f0be bbed 9a3e
000000f0: 42b5 55bf 2062 43be 61a4 a13f 5a63 d0bd
00000100: 91f0 95be 1c3f 9c3e 8542 243f d333 853e
00000110: d6e0 8d3f 8fde b0be e61e d2bd 0e4c febe
00000120: be85 953d 64e5 9fbf 05db 883c b48e 523f
00000130: 5ebd 2e3f 1b66 88bd 8670 3cbf 6970 b1bf
00000140: c405 1c3f 2578 03bd 42ce 0fbf b0c8 1f3e
00000150: e1b2 5abf 247f f8be 08ac 9cbd 74ea 92be
00000160: 16fc 2e3f 9412 863f be88 febe 27a3 7abe
00000170: 2f6b 563f 47ca 12bf 546e 2a3f cac2 3fbf
00000180: ddd3 95bd bc79 cabd 645a 7bbe d098 093d
00000190: e868 bdbe 51a1 12bf 0150 f5be a839 ab3f
000001a0: c2a3 a53e 13b8 253e 0c02 e3be 899b 6bbf
000001b0: 840f 953e a9d9 5b3f ce53 1d3d 9a06 e53e
000001c0: fd11 a6be 4777 ba3f 9f73 373c 1cb7 543f
000001d0: a439 723d 94c2 ec3e 8cba 16be 020e 7d3f
000001e0: 7462 973f 0187 143f ed0c 3fbf 4eb3 203f
000001f0: 8483 2d3f 16a4 193d 97c8 8d3e 66d9 9bbe
00000200: 8db6 3e3f 25af 96be ae9c bdbc 6ccf 143f
00000210: 17d7 34bf 64ae 0c3f ef1f 2b3f 143e 3b3f
00000220: 514d b1be 99b7 eabe 70d0 b6be d270 4a3d
00000230: 637c 343f 74b2 643e 7e55 32bf f228 893f
00000240: c575 c4be 685e 623f a513 91be 029c 12bf
00000250: cc97 97bd 3eea 0b3f 1c0c f53d df1a 08bf
00000260: 7349 b53e 75c7 6abf 3603 fcbe 3e05 183f
00000270: 215a 033f c078 90bf b3d1 e93e 4cc4 0f3f
00000280: 029b bb3e 724f 97bd c844 cabe e2cd a23f
00000290: 8b6c 3bbf 7e35 b7be d767 06bf 1d57 633d
000002a0: 8178 753f b1dd a5be 07f0 56be f294 b53e
000002b0: 611a 763e 43e1 d33d 6892 08bf 6210 383f
000002c0: 73b8 9e3e 41f3 45bf d28f 7ebf 30f3 f53e
000002d0: c2c0 833e 0fd3 f63e 8528 0bbf 85d2 d73d
000002e0: d925 80bf 94dd 503f 944e 243f c0e8 92bd
000002f0: 1421 65be 614f 2bbe b075 353f 1bd6 683f
00000300: 200d 873d efe2 bdbe 1895 f43e 9f20 05bf
00000310: 823a 833f e048 403f d218 7dbe 82fe 0ebf
00000320: 61fc 9cbe c026 bb3e 7f4e 293f 0cca 00bf
00000330: 624d 953e b4ac 7b3d 715a 10be 87c1 843e
00000340: e46a 143f 50ab 88bd 29cb 403f 944a 283e
00000350: 47e7 7c3c 04cb 5d3f 9e7d 353f 3c4e 75bf
00000360: 056f 483d bdff 0bbf deaa eb3c 514f cfbe
00000370: e86b 06bf ee08 2b3f 7d1f 463f 3c4a 75be
00000380: efc8 18bf 2313 243f 4d4b fcbe d7f6 36bf
00000390: 4c18 cd3e db6c bc3e 3388 033f e547 04bf
000003a0: d28c 2dbf 33de 7ebf e143 293e b8ad 3d3f
000003b0: ca8c 473f 8bfc 0abe cc7d f2be 8239 3ebf
000003c0: eaae 0cbe 26a8 51be 098d 703e c5e6 89bf
000003d0: f641 d63e ace6 a13e 40f6 5a3f 1b66 88be
000003e0: 52f3 493f 166d 32bf 5df9 30bf 82aa b9be
000003f0: 8d27 0e3f b667 ccbf 3c30 d8be 6af5 d53e
-0.432459 0.260294 0.360158 -0.148197 0.030726 1.206227 -0.196839 -0.562389
-0.383573 -0.637653 -1.346201 0.108778 0.262594 -0.014292 -0.454411 -0.463879
0.096912 -0.717013 0.119899 0.014314 0.231784 -0.685272 0.118999 -0.615106
-0.887186 1.247146 0.488363 0.795708 -0.447671 0.856745 0.087697 -0.032327
-1.315123 -0.596188 0.323288 -0.714614 0.103914 -1.127575 0.208423 -0.39065
0.586557 0.494595 0.892207 -0.986556 1.019234 0.25972 0.51404 -0.194084
0.448974 0.11316 0.835094 -0.822818 -0.224664 0.582407 0.184869 -0.447353
-0.16386 0.500343 -0.470526 0.302595 -0.834797 -0.190804 1.262829 -0.101752
-0.292851 0.305169 0.64164 0.260161 1.108424 -0.345448 -0.102598 -0.496674
0.073009 -1.249188 0.016706 0.82249 0.682577 -0.066601 -0.736092 -1.386243
0.609463 -0.032097 -0.561741 0.156039 -0.854292 -0.485345 -0.0765 -0.286945
0.683534 1.047442 -0.497137 -0.244763 0.837573 -0.573399 0.665746 -0.749066
-0.073158 -0.098865 -0.245462 0.033593 -0.369941 -0.572774 -0.479126 1.337697
0.323515 0.161835 -0.443375 -0.920342 0.291134 0.85879 0.03841 0.447316
-0.324356 1.456765 0.011197 0.830919 0.059137 0.462422 -0.147196 0.988495
1.182692 0.580185 -0.746291 0.627736 0.677788 0.03751 0.276921 -0.304393
0.744973 -0.294305 -0.023146 0.58129 -0.706407 0.549536 0.668456 0.731416
-0.346293 -0.458432 -0.357059 0.049424 0.705023 0.223337 -0.696617 1.071562
-0.383711 0.884253 -0.283353 -0.572693 -0.07402 0.546543 0.119652 -0.53166
0.354076 -0.917106 -0.492212 0.59383 0.513094 -1.128685 0.456678 0.561589
0.366417 -0.073882 -0.395056 1.271908 -0.732125 -0.35783 -0.525022 0.055503
0.95887 -0.323957 -0.2099 0.354652 0.240335 0.103457 -0.533484 0.719
0.310001 -0.773243 -0.994382 0.480371 0.25733 0.482079 -0.543587 0.105382
-1.001155 0.815881 0.641824 -0.071733 -0.223759 -0.167295 0.708827 0.909517
0.065943 -0.370872 0.4777 -0.520029 1.025223 0.751112 -0.247165 -0.558571
-0.306613 0.36553 0.661354 -0.503083 0.291606 0.061444 -0.14097 0.259289
0.579756 -0.066733 0.7531 0.164347 0.015436 0.866379 0.708948 -0.958225
0.048934 -0.546871 0.028768 -0.404902 -0.525084 0.668105 0.773918 -0.239541
-0.596816 0.640917 -0.492762 -0.714704 0.400576 0.368018 0.513797 -0.516722
-0.67793 -0.995578 0.165298 0.740932 0.779492 -0.135729 -0.473616 -0.743065
-0.137386 -0.204743 0.234913 -1.077355 0.418472 0.316213 0.85532 -0.266404
0.788869 -0.696977 -0.691305 -0.362629 0.555291 -1.596915 -0.422243 0.417888

arith.constant1 f4 [100, 196]
00000000: c5e3 82bd 1a34 f43c ea94 073e e9ef e53d
00000010: 19e7 0f3e 5986 b8bd 10ce a73b 8120 e03d
00000020: 122e 14be c630 67bd 9df5 c93d 68eb 60ba
00000030: ef6f 503d 5cad 133d 58e6 ad3b 9acc 98bd
00000040: deae 173d 8b8b 23bc edbb 923e 3a23 ca3c
00000050: 40f9 3b3c c878 94bd 99d4 d0bc a565 24bc
00000060: 384b c93b 5dfd 083e bb9a fc3d e5b9 0e3e
00000070: 2d3f f0bc 8203 6a3e 5bb1 7fbd 2c0e 273e
00000080: 3ecd 093d dbc0 0d3e fc36 043d b1dc d23c
00000090: 00ca bf3d 1f9d 7a3d 89ef c4bd 132a 28be
000000a0: 0b63 0bbd d368 22be 091a f33d 9c4e 72bd
000000b0: ac8e 9c3d 2464 603d 40bd f93d 93a9 823d
000000c0: 4a26 273e dfa5 d43c b3d0 0e3d 98db 7dbd
000000d0: 971a a13d 16a4 99bd 3f1d 8f3c 8332 0dbe
000000e0: d0b6 fa3d 07b3 093e 0c73 e23d 72c0 2e3c
000000f0: 9390 08bd 4eb4 8b3d d193 b23c c922 cdbd
00000100: 8123 813b 5186 6abd e602 973d f436 b63d
00000110: b3b2 dd3d a20a 3f3e 8e90 c1bd 94bd 65be
00000120: f9f6 86be 569e 70be 94dc b1be 50e3 2ebe
00000130: a3ac 9fbd 3a94 c13d 4359 98bd 9294 34bd
00000140: 7c9d f4bd 41d4 fd3c 9771 13bd a4c7 1f3e
00000150: 6479 173d 938e f2bc 03b0 813c e866 0f3e
00000160: 9a05 0a3f 14b0 cd3e db36 bc3e 83dd 303e
00000170: 469a b83d 0c1f 91bc b3b4 93be 15e2 11be
00000180: edd3 41be d2c2 35be dd26 5c3d 8fa5 3fbe
00000190: 95b9 01bf ff3e 33bf 450f 3c3d 7440 2a3f
000001a0: b076 103f b1a4 1c3e a10f 163d 629d aabc
000001b0: 27f8 263c 802b 99bd d655 01be cb4b fe3d
000001c0: 9d12 90bd e5b9 96be 42b4 6ebf 514e d4bf
000001d0: 5d18 05c0 5fb4 dfbf 7aaa 83bf c408 89be
000001e0: 24f1 723c da8d de3d 6e88 313e 7a17 cfbd
000001f0: 8faa 663d 0778 d2bd eb1a 4d3e 363d 683e
00000200: 1ec1 0dbb 399a 733e 9338 2b3d 74ea 6abe
00000210: 6cee d8be ccb6 83be 300e 0ebe b263 23be
00000220: efa9 1cbc f569 b5bd e789 a73d ef02 65be
00000230: 9109 b83d c2a5 bb3e 7c27 0e3f e8c1 0d3f
00000240: 7121 2b3f 0a69 3d3f b14f b03e 2715 0dbd
00000250: 3200 f4bd 98a3 37be 043b 0ebe e8dd 283e
00000260: ab78 53be 5d53 a0bd 999b 3fbe 27fa bc3d
00000270: 8eaf 9dbd d7a0 af3d c501 94bd 08af ddbd
00000280: fe29 153d c5fe f23d 8cf8 ce3c e290 8dbd
00000290: 1f65 c4bc 1add 01bd 1e50 063e 0569 26be
000002a0: 5f08 b93c f9bb 373d ccb2 37be d5cf 6bbe
000002b0: 84f0 18be 2c66 04bc eb1c 833c 57b2 63bd
000002c0: 7e90 25be 9f73 373d 2b35 dbbd 919c 3cbe
000002d0: 514d 393e 3e75 3c3e 467b 1cbe 5b99 40be
000002e0: 44f9 02bd 070c 52be d15c 27be 78ef d0be
000002f0: 70ee 2f3c f583 ba3b 685b 5dbe 6188 1cbe
00000300: 40a3 f4bc da37 97bd 3239 f53d e44a 7dbd
00000310: 6ccd d63d 88d9 cbbb 780b a4bc e221 8cbd
00000320: b48e aabb 7a71 22bd 15e0 3b3c a3cc a6bd
00000330: b6a1 e2bc f6d2 34be 6b10 66be 111c 973c
00000340: e1ec d63c 1475 16be 2c2d 233d 8528 1f3d
00000350: 94a3 e0bd b9a8 96bd 1e17 95bd b130 ecbe
00000360: d7f9 dfbe b611 efbe 4050 8ebe cedf 9cbe
00000370: 3fc5 81be 5ef6 2bbd 821f d5bb 1de7 36bd
00000380: 6858 4cbd 63ed 2f3e e886 46be fd6a debe
00000390: 3c4d 02bf 2c2e c6be 3eb0 9bbe b725 eabe
000003a0: 8125 97be f050 24be 87c3 d2bb f2b0 f0bd
000003b0: a5d8 113e 7a54 0c3e 53af bb3d b933 23be
000003c0: b6bf 73bd 3a3b e1be 4966 75be 522c d7bd
000003d0: c51c 043e 938d 573e 59f8 3a3e d32f 513e
000003e0: 4224 8b3e 3541 d43e 331a 793e 0a30 9c3e
000003f0: 7505 db3b 81d0 ba3d 42ee 9abe 5eda 98be
-0.063911 0.02981 0.132404 0.112274 0.14053 -0.0901 0.005121 0.109437
-0.144707 -0.056443 0.098613 -0.000858 0.050888 0.036054 0.005307 -0.074609
0.037032 -0.009982 0.28659 0.024675 0.011473 -0.072496 -0.025492 -0.010034
0.006143 0.133779 0.123342 0.139381 -0.029327 0.228529 -0.062425 0.16314
0.033643 0.138431 0.032279 0.02574 0.093647 0.061185 -0.09616 -0.164223
-0.03403 -0.158603 0.118702 -0.059157 0.076444 0.054783 0.121943 0.0638
0.163232 0.025958 0.034867 -0.061977 0.078664 -0.07502 0.01747 -0.137888
0.122419 0.134472 0.110571 0.010666 -0.033341 0.068215 0.021799 -0.100164
0.003941 -0.057257 0.073736 0.088972 0.108251 0.186564 -0.094514 -0.224356
-0.263603 -0.234979 -0.347386 -0.170789 -0.077966 0.094521 -0.074389 -0.044087
-0.119441 0.030985 -0.035997 0.156035 0.036981 -0.029609 0.015831 0.140041
0.539148 0.401734 0.367606 0.17272 0.090138 -0.017715 -0.288488 -0.142464
-0.189285 -0.177501 0.053748 -0.187155 -0.506738 -0.70018 0.045913 0.665046
0.564311 0.152972 0.036636 -0.020827 0.010191 -0.07479 -0.126304 0.124168
-0.070348 -0.294387 -0.932438 -1.65864 -2.079612 -1.747692 -1.02864 -0.267645
0.014828 0.108669 0.173372 -0.101119 0.056315 -0.102768 0.200298 0.226796
-0.002163 0.237893 0.041802 -0.22941 -0.423694 -0.257254 -0.138726 -0.15956
-0.009562 -0.088581 0.081806 -0.223644 0.089862 0.366499 0.55529 0.55374
0.668479 0.739884 0.344358 -0.034444 -0.119141 -0.179335 -0.138897 0.164909
-0.206515 -0.078284 -0.187117 0.092274 -0.076995 0.085756 -0.072269 -0.108244
0.036417 0.11865 0.025265 -0.069124 -0.023974 -0.031705 0.131165 -0.16251
0.022587 0.044857 -0.179393 -0.230285 -0.149355 -0.008081 0.016005 -0.05559
-0.161684 0.044788 -0.107035 -0.184191 0.180959 0.184041 -0.152814 -0.188085
-0.031976 -0.205124 -0.16344 -0.408077 0.010738 0.005692 -0.216169 -0.152864
-0.029863 -0.073837 0.119738 -0.061839 0.104884 -0.006221 -0.020025 -0.068424
-0.005205 -0.039659 0.011467 -0.081445 -0.027665 -0.176586 -0.224672 0.018446
0.026236 -0.146931 0.039838 0.038857 -0.109687 -0.073564 -0.072798 -0.461309
-0.437453 -0.466932 -0.277956 -0.306395 -0.253458 -0.041983 -0.006504 -0.044654
-0.049889 0.171804 -0.193874 -0.43441 -0.508991 -0.387071 -0.304079 -0.457319
-0.295208 -0.160465 -0.006432 -0.117525 0.142428 0.137041 0.091643 -0.159377
-0.059509 -0.439905 -0.239648 -0.105065 0.129016 0.210501 0.182588 0.204284
0.271761 0.41456 0.243264 0.305054 0.006684 0.091218 -0.302599 -0.298541

arith.constant2 f4 [100]
00000000: ae2d bc3c 8bc1 033e 9f04 ae3e 378b 173e
00000010: 8b54 383e 4a43 cd3d c1a8 a43d 55a3 073f
00000020: 9a94 c2bd e484 59be 406c 89bd 90a3 d9bd
00000030: f3e6 903e e141 4f3f d45f 0f3e 80d4 be3e
00000040: 72dc e93e e36e d03d c47c b9bd 40dd c03e
00000050: dfa5 8cbe 546e a2bc 0b7c c53d 1826 c3be
00000060: 5e66 18be c555 153e 9e40 103f d994 5bbe
00000070: 7d03 53bf 02f3 50bd f9bb 0b3f f86c bd3e
00000080: 7bd8 bb3e 3b72 ec3e f27d f1bc e4f3 0a3d
00000090: 0b96 2abe 73f7 a93e 2590 d23d 42cc 85be
000000a0: edb7 96bd af06 c8bd 11e0 f43d c632 5dbe
000000b0: f19c 2d3d 978e b93c c076 103f b972 be3e
000000c0: f183 db3e 035b 353e 9850 e13d 2ae5 653e
000000d0: 58e4 d7be 85cc 153d 35b4 613e e7e0 b13e
000000e0: 65e1 6bbd 404d 013f e90f ed3d b58c d4bd
000000f0: b282 4f3e d026 073f ee08 473e fdf5 0a3f
00000100: 6b7e 3cbd 973b db3e 2db1 823e 766e 5a3e
00000110: ba87 243f 04aa ffbd 5034 4fbd 8a22 643d
00000120: 6c23 debd a1d6 243e 6a6b 043f 98bf 323f
00000130: cfd8 07be f46b 2bbe 98f9 ce3d a1db 233f
00000140: 8659 e8bc ef3c a9be 39b4 c83c 9a42 773e
00000150: a740 063e d3a5 ffbc 6de6 b83e a8ac 86bd
00000160: 11e2 ea3d be66 a93e 679a 003f cbbf 623f
00000170: 8011 103f e7a6 cdba eab3 633e a8e4 1cbd
00000180: 1ea5 32bf 51f9 77be 4eb3 503e 1fdb 523e
0.022971 0.128668 0.339879 0.147992 0.18001 0.100226 0.0804 0.529836
-0.09501 -0.212421 -0.067101 -0.106269 0.283012 0.809599 0.140014 0.372715
0.45676 0.101774 -0.09057 0.376688 -0.274703 -0.019828 0.096428 -0.38115
-0.148828 0.145835 0.563486 -0.214435 -0.824272 -0.051013 0.545837 0.369972
0.366886 0.461809 -0.029479 0.033924 -0.166588 0.331966 0.102814 -0.261324
-0.073593 -0.097669 0.119568 -0.216014 0.042386 0.022651 0.564312 0.371969
0.428741 0.177105 0.110017 0.224507 -0.421664 0.036572 0.220414 0.347419
-0.057588 0.505085 0.115753 -0.103784 0.202647 0.527936 0.19437 0.542816
-0.046019 0.428189 0.255258 0.213312 0.642696 -0.124836 -0.050587 0.055697
-0.108466 0.160975 0.517264 0.698236 -0.132663 -0.167404 0.101062 0.64007
-0.028363 -0.330543 0.0245 0.241465 0.131106 -0.031207 0.361133 -0.065759
0.114689 0.330862 0.502356 0.885739 0.562767 -0.001569 0.222366 -0.038304
-0.697832 -0.242162 0.203809 0.205914

arith.constant3 f4 [10]
00000000: af93 7ebf dbe0 30bf c559 41be f4c0 c7bd
00000010: f791 3b3e 9371 b4be fdda 0a3e a7b2 30bf
00000020: 3127 fe3f f33b 413f
-0.994441 -0.690931 -0.188819 -0.097536 0.183174 -0.352429 0.135601 -0.690226
1.985571 0.754821
